experiments/results/trained_weights.npz (npz, 1068 bytes, 1 tensors)

weights f8 [10, 10]
0	0x3fdb42b1668cf5ae	0.42594561590871194
1	0xbfc463d4757ac5cf	-0.1592965673094526
2	0x3fe42d7d1763d04e	0.630552812274354
3	0x3ff7ba061ec6c288	1.4829159929469444
4	0xbfcf00fd00c3ec0a	-0.24221766030663644
5	0xbfcb6233f00ad869	-0.21393441410845362
6	0x3ffac6bf1ee05a89	1.6735221105679179
7	0x3fe8d655166b9872	0.7761636197945008
8	0xbfdd38e21028e52a	-0.4565968663988139
9	0x3fe13e28a91484f4	0.5388377477976563
10	0xbfe1e63f15fdb2d0	-0.5593562535774144
11	0xbfdde43c87f05c1f	-0.4670554473427177
12	0x3fcf5b4d072b5025	0.24497378206308543
13	0xbffca452eaf201ac	-1.7901181390335337
14	0xbffbc0a8b21919b7	-1.734535880752089
15	0xbfe182bee2cb9b2d	-0.5472101621242921
16	0xbff03baa4d1fdac0	-1.014566708819686
17	0x3fd05f3f4bb2e8f6	0.2558134307142973
18	0xbfeb3a6ed93578d6	-0.8508829347954598
19	0xbff5feccd1c0bd65	-1.3747070497009528
20	0x3ff8154cfab12a26	1.5052003662737063
21	0xbfd15c16cfec0dd2	-0.2712456732262726
22	0x3fc19f1a378ee95e	0.1376679202347288
23	0xbff7eade1f83ff96	-1.4948407393530707
24	0xbfe07b34e4a28031	-0.5150398698351691
25	0x3fcc378dcd8025d5	0.22044537100036501
26	0xbff33554df5081a4	-1.2005203936788371
27	0x3fd63b8675a2d970	0.3473831318655334
28	0xbfe30f9d6d46bfa4	-0.5956561216644229
29	0xbfd4478ec24fdbde	-0.3168675324990867
30	0xbfe5bc55122fa470	-0.6792397837827036
31	0x3ffdb0f91fc491a7	1.8557063332492392
32	0xbfb10d82cc47a361	-0.06661241042423917
33	0xbff08b646986d435	-1.0340313074241412
34	0x3fe8d9b116c3afa3	0.7765737003914989
35	0xbff24b262672149f	-1.1433469297201453
36	0x3fc5b8c2950ef988	0.16970093038794354
37	0xbfff9cc45bcfb69c	-1.9757731996900594
38	0xbff499a4486dafdb	-1.287510188029947
39	0x3fc15219d354e2a0	0.13531802004742577
40	0x3fe7feaf91690e65	0.7498395767256169
41	0x3fce4d04be2998c7	0.2367254189040919
42	0xbfc91743716178fa	-0.19602244411630193
43	0xbfd2ae07e8837825	-0.2918720026626736
44	0xbff772cd54df0bfa	-1.4655278506550062
45	0xbfe5c8baa6bfc58c	-0.6807530648058431
46	0xbfe0b83533e15168	-0.5224863065036915
47	0x3fefb716146124f7	0.991099395564702
48	0x3fd7a96aa56f72c7	0.3697153678493063
49	0xbffbf8970b3dec64	-1.7481909217010747
50	0x3fd58afed8edb85d	0.33660861191208885
51	0xbfd78960b18b8221	-0.36775986994146775
52	0xbfe6bfe21647aa67	-0.7109232363848833
53	0x3fe3f1fbb7bfd0f5	0.6232889736989181
54	0x3ff0bafecb1b8735	1.0456531461608851
55	0x3feca872ca035ee4	0.8955625482148801
56	0xbfe7dea611e3c28a	-0.7459287976654008
57	0xbfd245f8bd3617f7	-0.2855207298056252
58	0x3fd16381158efe0e	0.2716982565434315
59	0x3ff0224b8669ecf4	1.0083728075540508
60	0xbfe0e49ffdf06b48	-0.527908321356656
61	0xbfc2ba1d2aaef902	-0.1463047464766945
62	0xbff0c644869b8762	-1.048405195055658
63	0xbff3cbbcf2392440	-1.2372407399982563
64	0x3feb8acf7658ff3c	0.8606946288564141
65	0x3ff607b25a5516a8	1.3768790749176478
66	0xbf9fa61d482b7e76	-0.030907113580609345
67	0x3ff192ef1784b9f6	1.0983725470247214
68	0x3fd65c05cefeda03	0.34936661924749063
69	0xbfe5d98d261a34d5	-0.6828065628229988
70	0x3fd4486a5656509a	0.3169198840271378
71	0x3ff7f4b846c57120	1.4972460522176974
72	0xbfa4511598af51ff	-0.03968112458065675
73	0x3ff94ea5f985aee8	1.5817012545548383
74	0xc004d8e7a349ae93	-2.6059105641232434
75	0x3feb9fd6ee5d335e	0.863261666827025
76	0x3fb673523e50d28c	0.08769716283206658
77	0xbfccf86712a1c77c	-0.22633064660800162
78	0x3fb41a68201ac3bc	0.07852793487360449
79	0xbffd9ffddb640a74	-1.8515604562714119
80	0xbfc81d1d7322bd6e	-0.18838852044926163
81	0x3fd41cbfb8011760	0.3142546936909323
82	0x3ff6ca229e048631	1.4243494198384605
83	0xbfdfa0190cef7502	-0.49414659751148815
84	0xbfea3ab5bf6633df	-0.8196667421594802
85	0xbfddd3e0d18a46a7	-0.46605701887993195
86	0x3fee0ccff1884618	0.9390639989307514
87	0x3fd4ce98c3a6f70e	0.32510966402684083
88	0xbfe24ea46d85c12b	-0.5720998896704591
89	0x3fdc006928b9a3d4	0.43752507187906287
90	0x3fb322ef1fcf7e01	0.07475180174468933
91	0x3ff02ef5d9c787c4	1.0114649302490628
92	0xbfe61f86b199600e	-0.6913484066708422
93	0xbfd8f4ed025e2390	-0.3899490855333676
94	0xbfd88a6e1f639d76	-0.38344910683959854
95	0xbff71ba4ec23573c	-1.4442490791456768
96	0x3fd01f941fa231f6	0.2519274052545194
97	0x3fd1330fa9e5db56	0.26874152747716573
98	0x3f806ed4a137d702	0.008023892564760885
99	0xbfd2abcbff187ed6	-0.2917356482666781
